backend/sasrec_weights.pth (torch, 474530 bytes, 28 tensors)

item_embedding.weight f4 [200, 64]
000000 e6 df 5b b8 b3 e2 5d bc 7e 63 f6 bb 1c 5b 23 bc
       -5.242219e-05 -0.013542819 -0.0075191846 -0.009970453
000010 8f 44 96 bc ab 7a ba bc c0 57 c5 3c fd 1d 4c bb
       -0.018343238 -0.02276357 0.024089694 -0.0031145804
000020 02 99 d2 3b d0 e5 81 bc 4d 09 ae 3c 59 3d ba bc
       0.0064269314 -0.015856653 0.02124467 -0.022734331
000030 74 40 c5 3c 4c b8 93 bc 60 ed bd bc 35 3e 45 3d
       0.024078585 -0.018032216 -0.023184478 0.04815503
000040 c7 15 95 3b 01 b8 de bc ab 04 9a bc 7f 6c 04 3d
       0.004549715 -0.02718735 -0.018801054 0.032330032
000050 d3 3f 2d 3d 90 da cb 3c 35 bb b3 3c 72 e0 0e bc
       0.042297196 0.024884492 0.021939853 -0.008720504
000060 fc 53 98 3b 2f 70 b0 3b 62 1e 92 3c 2e 1c aa 3c
       0.0046486836 0.005384467 0.017836753 0.02076539
000070 24 1b 9a 3c 37 8a 97 3c a7 69 16 3c 15 72 e4 3c
       0.01881177 0.018498523 0.009180463 0.02788643
000080 77 7d d6 bc 6a 00 89 bb 85 ac b0 3c ee d6 44 3b
       -0.026182873 -0.0041809576 0.021566639 0.0030035335
000090 30 62 e3 3a e3 d6 f5 3c c5 b1 d9 bc 7e 63 06 3d
       0.0017347988 0.030009693 -0.026574025 0.032809727
0000a0 70 ae d1 bc de 59 9d 3c 02 8d 11 bc 41 dc f0 3b
       -0.025595874 0.019207891 -0.008883717 0.007350475
0000b0 cb d1 48 bb e0 58 90 3c 62 4b 0c 3c 49 79 e7 3b
       -0.0030642624 0.017620504 0.008562895 0.007064019
0000c0 3c 9a 1f bc 2a c1 3e 3c 62 8d c3 3c d3 c7 7e 3c
       -0.009741362 0.011642734 0.023871128 0.0155505715
0000d0 b1 44 06 bc aa 96 87 3c b3 c3 a8 bb 89 c0 9d 3c
       -0.008195088 0.016551334 -0.0051502823 0.019256847
0000e0 50 35 fd 3c 2f eb 13 3c 79 63 41 bd 66 84 e1 bb
       0.03090921 0.00902824 -0.047214005 -0.006882238
0000f0 59 0e c3 bc f3 07 bf bb 8c b6 d8 bc be 78 83 3b
       -0.023810552 -0.005829805 -0.026454233 0.0040121963
000100 7d a7 a4 bd 27 d7 c2 bc 62 2c 27 3c 32 e8 47 bd
       -0.08039758 -0.023784233 0.010203453 -0.048805423
000110 83 1c 13 3c 32 a1 38 3c 38 60 1e 3e c4 a2 a3 3d
       0.008978966 0.011268901 0.15466392 0.079900295
000120 c5 f8 15 be 18 87 59 bc 0e 42 f6 bc 95 ee 99 bd
       -0.1464568 -0.013276838 -0.030060794 -0.07516209
000130 7b 9d cc bd a9 51 5a 3d a7 f5 3c bd 75 29 e2 bd
       -0.099909745 0.053300533 -0.04613271 -0.110430636
000140 6c 9e c7 bd 74 f7 41 bd c4 42 f3 3c 5a 20 37 bd
       -0.097470134 -0.04735513 0.029694922 -0.044708587
000150 ae 47 98 bc 2f f5 3c 3d ae 3d 4d 3d f4 b7 2a bd
       -0.018588867 0.046132263 0.05010765 -0.041679338
000160 de 8b da 3d 01 7e 87 3d d3 5c 22 3b 4f 22 ff bc
       0.10671209 0.0661583 0.0024774566 -0.03114429
000170 d6 4e 75 3d 09 b7 2b bd 4f a6 75 3c f6 56 74 3d
       0.059889637 -0.041922603 0.014993264 0.059653245
000180 74 f8 60 bd 82 ec 97 3d a9 44 b3 bd 30 47 aa 39
       -0.054924443 0.07418157 -0.0875333 0.00032477966
000190 37 6a e0 3d 00 05 57 3d 5b 8a d0 3d 93 45 a0 3d
       0.10957759 0.052495003 0.10182639 0.0782577
0001a0 2e 85 9d 3d 15 bc 8f bc 29 e3 aa bd f8 5f e3 3b
       0.07691418 -0.01754574 -0.083441086 0.0069389306
0001b0 ce 91 b7 bc f3 99 1b 3d 8c f2 b9 bc 75 71 34 3d
       -0.022408392 0.037988614 -0.022698663 0.044053514
0001c0 4c 81 e0 3d 53 f9 26 be fc d6 00 3e fc 2a 8d 3d
       0.109621614 -0.16306047 0.1258201 0.06892964
0001d0 51 fd 24 3e f9 71 38 be e1 db f9 3c 17 93 8c bb
       0.16112258 -0.18012227 0.030500354 -0.0042899954
0001e0 01 9c 8d 3d c4 3a 92 3d 8d 81 00 3d a3 f2 a9 bb
       0.06914521 0.07140115 0.03137355 -0.0051863953
0001f0 62 fa 4f bd 6c 05 07 be 01 fb 29 be 1b 3e 9b bd
       -0.050775893 -0.13185662 -0.16599657 -0.07580205
000200 70 74 81 bd ea be 03 be 04 66 6e bd c6 77 63 3c
       -0.06321037 -0.12865797 -0.05820276 0.013883537
000210 2e 97 28 3e 30 e9 c0 3d 79 27 24 bd 14 aa 53 3c
       0.1646392 0.09419477 -0.040076707 0.012918968
000220 27 32 da 3c 8f f2 7f bd 71 b4 56 bc dd e1 20 bd
       0.026635243 -0.06248718 -0.013104544 -0.0392779
000230 e3 f8 6a bb be 2f 6e 3a 8a 7d db bd b2 8b 02 3e
       -0.0035853914 0.00090860936 -0.10717304 0.12748602
000240 72 ad 1e be 83 e5 a7 bd 63 37 fe 3d 36 5f 35 bd
       -0.15495852 -0.08198073 0.12412908 -0.044280253
000250 07 ea 25 3e d7 84 d6 bc c3 34 52 3d 2f c4 10 3e
       0.16202556 -0.02618639 0.05131985 0.14137338
000260 0e 31 41 bd 39 03 0b be cc c8 bf 3d 87 2e 1c bd
       -0.047165923 -0.13575448 0.09364471 -0.03813031
000270 1b 5c b3 3d 8d 19 31 bd 31 8d 5d be ae 14 1a bc
       0.08757802 -0.043237258 -0.21635891 -0.0094043445
000280 3e cc 54 3e b6 18 3a 3e e1 c8 6b 3d 2d 04 68 3d
       0.20781037 0.18173489 0.05756462 0.056644607
000290 cc 4e 45 3e d6 c8 4c 3d 58 aa f9 bc eb ec c1 bd
       0.1926834 0.04999622 -0.030476734 -0.09469017
0002a0 41 c9 74 3d 53 82 94 3d 54 15 17 3d 46 7d 9b 3c
       0.059762243 0.0725142 0.036885574 0.018980633
0002b0 3c 9e 72 3d 5c d3 6a bd 74 a4 91 3d 37 f4 4b be
       0.059232935 -0.057330474 0.07111445 -0.1991738
0002c0 44 78 1b 3c 8a c4 2d be ee 54 35 bd 4c 6d 46 b9
       0.009489123 -0.16969505 -0.04427045 -0.00018923468
0002d0 0c b1 6b bc f3 d0 00 3e d8 bb 12 bd 3f fb 20 bd
       -0.014385473 0.12579708 -0.035823673 -0.039302107
0002e0 bf 0b dc bd d9 8e 9f 3d bd 89 16 3e 5a 97 a0 bc
       -0.10744428 0.07790918 0.1470098 -0.01960342
0002f0 8f 0e 86 bd 20 76 95 3a 75 78 21 3b e6 b7 53 3b
       -0.065457456 0.0011403002 0.0024638448 0.0032305657
000300 76 be 00 be 3a d0 6c 3d 25 26 1f 3e fa 30 91 3b
       -0.12572655 0.057815768 0.15541895 0.0044308873
000310 cf 73 4d 3e b6 e4 a3 bc 96 ac 3e bd ef 0e 7d be
       0.20063709 -0.020006519 -0.04655131 -0.24712728
000320 96 dc 36 3d 33 f7 fd 3b 44 66 08 3e b7 7f 5a be
       0.04464396 0.0077504157 0.13320261 -0.21337782
000330 2f 35 ee bc e5 41 16 bd a5 ed 45 3e 8c 28 7f 3c
       -0.029078094 -0.036683936 0.19328935 0.015573632
000340 0f 47 22 3d e3 74 c9 3d 8f fe 25 3d 84 26 7a bd
       0.039618548 0.098367475 0.04052597 -0.061071888
000350 77 7b 05 bd cd 55 8e bd 87 aa af bd c1 7f a4 bd
       -0.03258845 -0.06949959 -0.085774474 -0.080321796
000360 13 7c 99 be d9 2b 4a be d6 ff 99 3d 0c 3e 6d bd
       -0.29977474 -0.19743289 0.075195 -0.0579205
000370 15 e3 da bd 87 39 19 3e 5a 12 de 3d 30 70 b1 bd
       -0.10687844 0.14963351 0.10843344 -0.08663976
000380 c9 c0 47 3e da 00 64 bd 2b ef fa bd 60 f0 09 bd
       0.19507135 -0.055664875 -0.12252649 -0.033676505
000390 b0 f2 b2 3c 76 2e c7 bd 23 fb 9c 3d 1c 33 24 3c
       0.021844238 -0.097256586 0.07665088 0.010021951
0003a0 4c 1f 93 3d f1 9b bd 3d 75 2a a3 3d 0b bb ba 3c
       0.07183704 0.09258259 0.079670824 0.022794267
0003b0 1e 23 10 bb 25 96 0c 3e a7 ae fc bd 78 80 8c bd
       -0.0021993588 0.1372915 -0.12338 -0.06860441
0003c0 53 6c 04 bd 27 f1 0d bd 53 f2 58 3d 0e 64 90 3d
       -0.03232987 -0.03465381 0.052965473 0.07050334
0003d0 03 25 46 3e 15 ff 6b bd 43 78 3a bc 20 46 b4 3d
       0.19350056 -0.057616312 -0.011381212 0.08802438
0003e0 00 a2 e6 3b b7 59 f5 bd 3a 40 b8 bd c8 fa 54 3d
       0.007038355 -0.119800024 -0.08996625 0.051996976
0003f0 74 02 87 bd 9c 00 a7 bc cb 13 90 3d 4b 39 aa 3d
       -0.06592265 -0.020386033 0.07035025 0.08311709

position_embedding.weight f4 [50, 64]
000000 6e 36 f4 bd bb 20 14 be 8e b1 7d 3e d5 d9 fe 3d
       -0.11924444 -0.1446561 0.24774763 0.12443892
000010 2f 7c 33 3d 51 a8 ec bd bf 75 bd bc 2b 15 a5 3e
       0.043819603 -0.11555541 -0.023127435 0.32242712
000020 f4 97 d2 3d d2 77 87 3d c2 eb d0 bd 1f c0 ab 3c
       0.10282889 0.06614651 -0.10201217 0.020965634
000030 ac cb 96 bc f5 2b f1 bc 0e f8 d3 3d 47 fc 22 be
       -0.018407665 -0.029439906 0.10350047 -0.15916549
000040 51 7c 4d be 42 3c 91 3d b5 4f ce bd dc 97 e2 bc
       -0.20066954 0.070915714 -0.10073797 -0.027660303
000050 ab 62 d6 bc 98 17 57 3c b1 02 ad be 21 78 7f be
       -0.026170095 0.013128184 -0.33791116 -0.2494817
000060 05 91 3e 3e 6a 66 84 3e a1 a6 cc 3c 0e 9c 83 be
       0.18610008 0.25859386 0.024981799 -0.25704998
000070 15 f4 52 bd 61 74 26 be 93 90 77 3c e4 a2 37 3e
       -0.051502306 -0.16255333 0.015110153 0.17933232
000080 57 60 1c bc 47 a5 4b 3e c6 5e 1e 3d d5 d6 97 3d
       -0.009544454 0.19887267 0.0386646 0.07414023
000090 02 97 8a 3d 73 57 c3 3d 03 c4 6d 3d 46 e8 4d 3e
       0.06767084 0.09538164 0.05804826 0.20108137
0000a0 9e 5d 07 3d 97 82 07 bd d0 8f 2b bd ce 01 2a be
       0.033048265 -0.033083525 -0.041885197 -0.16602251
0000b0 c1 b7 2b be e1 6e 05 be 4d c5 de 3a 93 44 0b 3c
       -0.16769315 -0.13030578 0.0016996056 0.008500236
0000c0 e6 2a 16 3e 0b c9 c0 bd 7e 85 5d 3e 5d 7a f6 bc
       0.14664802 -0.09413346 0.21632954 -0.030087644
0000d0 79 64 0e be 85 7d b4 bc 78 05 3b 3d 5a d9 9d 3d
       -0.13905515 -0.022032509 0.045659512 0.07707472
0000e0 3a 2c cf 3e 5c e0 27 3c 0f 75 03 3d e3 f2 79 be
       0.4046343 0.010246363 0.032094058 -0.2440906
0000f0 2e f3 fb 3d d1 a5 f7 bd ef a7 5c be 8b 14 6d 3c
       0.12302242 -0.12092174 -0.21548437 0.01447023
000100 31 c9 43 3e 42 b9 d0 bc c2 14 b9 be dc 03 b0 3c
       0.19119717 -0.025478963 -0.3614865 0.021486215
000110 07 f1 43 3e ce c7 e7 3d f3 83 c8 3d b0 d5 25 3e
       0.19134913 0.113174066 0.09790792 0.16194797
000120 32 c8 2a bd 36 88 75 bb 9a ce fd bd ef cd 49 bd
       -0.041694827 -0.0037465221 -0.12392922 -0.04926866
000130 58 37 de 3d 33 e2 3a 3e 21 d5 1b 3c 4c 20 82 3d
       0.108504 0.1825035 0.009511263 0.063538164
000140 c4 59 a6 bd 7d f0 32 3e 29 f7 d2 3d 40 a0 3a bd
       -0.0812259 0.17474551 0.10301048 -0.045562983
000150 30 83 ce bc bb 67 06 be e7 21 55 3e 39 e5 aa 3c
       -0.02520904 -0.13125508 0.20813714 0.020861255
000160 e5 38 0a 3e cd 23 93 3c e2 dd 53 bd fc 4a 0d 3d
       0.13498266 0.017961407 -0.051725276 0.03449534
000170 70 53 69 3e 6b 3f 18 be 99 ee 0f be a0 a3 55 be
       0.22785735 -0.14867942 -0.14055862 -0.20863199
000180 ac d9 5f bc b1 8d 95 3c 9f 5c 5f bd e8 3b 1a 3d
       -0.013662737 0.01825604 -0.05453169 0.037654787
000190 5f 81 4b 3c 5d a2 52 3e ec 01 a0 be 64 5b 88 bd
       0.012420981 0.20569749 -0.31251466 -0.066580564
0001a0 d0 d6 a8 3d 7e bd 0c be 31 c4 96 be 0b 1a 80 3e
       0.08244097 -0.1374416 -0.29446557 0.2501987
0001b0 ce 6a 33 be 76 df af 3d 53 1b bc 3d b2 8c f5 3c
       -0.17521212 0.08587544 0.09184899 0.029974315
0001c0 b9 9b 0b 3e 06 e3 55 3d 26 45 6f be 6c e8 6f be
       0.13633622 0.05221846 -0.23366222 -0.23428506
0001d0 d2 41 5a be 3b 41 dc bd 0a d3 0b be b9 a6 2e be
       -0.21314171 -0.10754629 -0.13654724 -0.17055787
0001e0 03 37 2a bd e8 7b 31 3d 96 bc 05 3e c2 0c 85 3d
       -0.04155637 0.043331057 0.13060221 0.06496574
0001f0 5d 88 be be 0e c0 3b 3e fc 3b 2a 3e 8a 24 93 3c
       -0.37213412 0.18334982 0.16624445 0.01796176
000200 61 63 18 3e 15 32 38 3e 7c 9d ba bc 08 ba 9a bd
       0.1488166 0.17987855 -0.022780173 -0.07555014
000210 6d 97 63 be b3 40 49 be 1b 0d 32 bd cb 4a 43 bd
       -0.22225733 -0.19653587 -0.04346953 -0.04767875
000220 dc 19 c4 3d 9d 0e 9d 3d 2e cf 34 bd 41 d8 a3 3d
       0.09575245 0.07668803 -0.044142894 0.080002315
000230 30 a0 8e bc f2 b4 62 3e e9 11 38 bd cb fa 51 be
       -0.017410368 0.22139338 -0.044938955 -0.20505826
000240 6c bf a5 3e 51 6b a1 3c 81 49 f6 bc 94 7d e8 3b
       0.32372606 0.019704493 -0.030064346 0.007095048
000250 9d ca 95 be ae 75 b8 3d e1 3b 2e bd 73 bf 52 be
       -0.29256144 0.090068206 -0.042537574 -0.20580845
000260 4a 8c dc bd 12 f1 0f 3d 15 db a5 be af 07 ed 3d
       -0.107689455 0.035142012 -0.3239371 0.11573731
000270 c9 0e 4e 3e ac a0 06 be 83 d9 1c bd 9c 55 88 3d
       0.20122828 -0.13147229 -0.038293373 0.06656954
000280 fb 86 ca 3c d5 d4 3b 3d bb 0e 44 3d 02 b8 94 3c
       0.024722567 0.04585727 0.04786561 0.018154148
000290 4c d3 94 be 6b 94 ae bc 1c cb ac bc 83 9e 33 3d
       -0.29067457 -0.021311006 -0.021092944 0.04385234
0002a0 6f b5 71 be 2c 67 09 3e 35 cc 48 3e e3 05 93 bd
       -0.23604368 0.13418263 0.19609149 -0.07178857
0002b0 6f 58 5f be 54 bc 03 be ba 3e f6 3c 8b 98 90 bd
       -0.21811078 -0.1286481 0.030059207 -0.07060345
0002c0 8f 62 dc bc 63 60 61 be e9 0f 2a bc 13 4e a9 3d
       -0.026902465 -0.22009425 -0.01037977 0.082668446
0002d0 2d 51 f4 3d 49 5a 16 3d 73 6a ac 3d 96 03 6d bd
       0.119295456 0.036707196 0.08418741 -0.057864748
0002e0 c6 17 5f 3e 1b e6 47 bd 8f 79 65 3d d9 26 5a 3e
       0.21786413 -0.04880343 0.05602413 0.21303882
0002f0 b2 6e 27 bc a4 9d b9 bc 96 21 2f 3e 38 4b 1f 3e
       -0.010219263 -0.022658177 0.17102656 0.15556037
000300 1b b3 7b be e4 9a 13 be ff 03 3f be f3 10 86 3c
       -0.24580042 -0.14414555 -0.18653868 0.016365504
000310 7a 6e 9b 3d cb 3a 1e be 31 0c 40 3d 95 81 11 be
       0.07589431 -0.15452115 0.046886627 -0.14209588
000320 4f ee 16 bb b8 a4 7a 3b d5 bd c2 3d 4e 62 7d bc
       -0.0023030227 0.0038245153 0.09508864 -0.015465332
000330 e5 8d 94 bd e9 89 01 bd 0e b3 14 bc b0 98 39 be
       -0.07253627 -0.031625662 -0.009075893 -0.18124652
000340 8e a6 35 bb 9f 2d c9 3d b2 fd 0f 3e 91 8c ba bd
       -0.0027717683 0.09823155 0.14061621 -0.09108842
000350 0b 8d c0 bd 8a 4d b8 3e 0d 55 1f 3e 7a 26 7b bc
       -0.09401902 0.35996658 0.15559788 -0.015328998
000360 70 a2 b4 bc 0d 2f 95 bc 8c 4b eb 3d d1 9d bb 3c
       -0.022050112 -0.018210912 0.11489019 0.022902401
000370 39 e7 a2 3d c5 c4 0e 3e 6b f6 86 3d 72 3e 41 3e
       0.079542585 0.13942249 0.06589969 0.18871477
000380 7f f4 10 be 42 8c 64 3d b8 ac 50 be b1 53 3a 3e
       -0.14155768 0.055797823 -0.20378387 0.18195988
000390 56 fc 41 3e 11 16 1c bc f4 01 57 3e 08 31 dd bb
       0.18943915 -0.009526745 0.20996839 -0.0067502297
0003a0 b6 01 f7 3d e2 c4 44 3d 50 45 1b 3d 65 08 c9 3d
       0.12060873 0.048039325 0.0379079 0.09816054
0003b0 1e 77 58 be f5 4c 62 3d 83 63 4a be dc c8 78 3d
       -0.2113919 0.055249173 -0.19764523 0.06073843
0003c0 1d 4e 72 3e 86 e5 8e bd a8 de 09 39 c1 9c 05 bc
       0.2366261 -0.06977372 0.00013148284 -0.008155049
0003d0 6d 46 85 3c 64 09 9a bc 43 51 64 3e 3d 1a ae 3d
       0.016268933 -0.018803306 0.22296624 0.08501098
0003e0 30 d6 7c 3d 49 9e 93 3d 3f 58 98 bd 60 df 1e 3e
       0.061727703 0.07207925 -0.074387066 0.15514898
0003f0 e0 f6 4c bd d9 cb f9 bd a0 5c a1 bd e1 62 25 be
       -0.050040126 -0.12197084 -0.07878995 -0.16151

attention_blocks.0.self_attn.in_proj_weight f4 [192, 64]
000000 43 cc ec 3c 10 6f 43 be c7 02 ca bd 8a 3d 72 be
       0.028905993 -0.19085336 -0.09863811 -0.23656288
000010 91 49 36 3e aa 34 4d be 6a 4b 9a be f1 0d 5a be
       0.17801501 -0.20039621 -0.3013566 -0.2129438
000020 e1 4e 8d bd 67 e3 10 be 83 4c a8 bd 0c 9a 87 3d
       -0.068998106 -0.14149247 -0.082177185 0.06621179
000030 57 77 15 be 0c 15 bd bc 7d 2a 1f bd 62 26 4c 3b
       -0.14596306 -0.023081325 -0.03885888 0.0031150808
000040 ec 1e 52 3d 99 da 79 bc 6e 6e 2b be c7 66 c3 3c
       0.05129902 -0.015249872 -0.16741344 0.023852719
000050 c3 5d 2a 3e db 4b 7e 3e 54 02 d2 3c bc 7f 27 bd
       0.1663733 0.24833624 0.025635876 -0.0408933
000060 07 43 3a be e0 b2 a5 3d ac b0 a6 3e 08 b6 23 3e
       -0.18189631 0.08090758 0.32556665 0.15987408
000070 96 3c 06 bd 44 c9 40 3d 54 d8 09 bc 51 18 1a 3e
       -0.032772623 0.04706694 -0.008413393 0.15048338
000080 c6 50 d7 3d 62 8e c8 3d 49 0d 08 bc 07 da f7 3d
       0.10513453 0.09792782 -0.008303949 0.12102132
000090 e7 4b e9 3d 5a 90 2c 3e 36 53 85 be ca 2c a3 bc
       0.1139143 0.16851941 -0.26040047 -0.019918818
0000a0 2f eb 35 3d 2e 4e 54 be 91 66 3a bd b8 33 08 bc
       0.04441374 -0.20732948 -0.04550797 -0.008313112
0000b0 a9 ca 5f bd bd ce 09 3e 14 67 d7 3d 74 a6 18 bd
       -0.05463663 0.1345777 0.105177075 -0.037268117
0000c0 db 44 9d 3e 7e f3 42 bb 5d 05 79 3e d9 c2 8b bd
       0.30716595 -0.0029747183 0.24318452 -0.068242736
0000d0 10 91 04 3e 97 61 ea 3d d1 c5 dd bd c1 a7 06 be
       0.12945962 0.11444395 -0.10828746 -0.1314993
0000e0 08 74 c5 3e fb 29 10 3e 4b 31 69 bd ed ef 84 bd
       0.38565087 0.14078514 -0.056931775 -0.06491075
0000f0 73 45 17 3e 53 78 64 3c 9e bd 23 bd fe 81 d6 3d
       0.14772587 0.013944703 -0.039975755 0.10474013
000100 fe 86 54 be 2f bf 6b be d8 c9 eb 3e 8a a5 2a bd
       -0.2075462 -0.2302215 0.46052432 -0.041661777
000110 21 9e c8 bd ed 12 01 3e 98 08 ab bd b1 d5 a3 bb
       -0.09795786 0.12604876 -0.083512485 -0.0049998392
000120 19 f2 3b bd e9 15 84 be 3a e1 90 3e 84 05 01 be
       -0.04588518 -0.25797966 0.28296834 -0.1259976
000130 7b 38 84 bd ce 46 04 bd 43 70 b8 bd 67 52 cd bd
       -0.06456085 -0.032294087 -0.09005787 -0.100254826
000140 d9 6f 9d be 92 d1 08 be dd 7f d9 3d 7b e0 e5 3d
       -0.30749395 -0.13361195 0.10620091 0.11224457
000150 ce f5 0e 3d ec 06 81 be 26 19 1c 3e f3 e5 4f 3e
       0.034902386 -0.25200593 0.15243968 0.20302562
000160 88 68 08 3e 01 b1 b1 3c 2b 49 a5 3e 6f 64 b4 be
       0.13321126 0.021690847 0.32282385 -0.35232875
000170 4d 3c d7 be 17 ed 38 be 40 d5 2d 3e c4 c2 07 3e
       -0.42038193 -0.18059193 0.1697588 0.13257891
000180 ce ad 16 3e f9 97 4b be 45 41 84 bd 3f f8 51 be
       0.14714739 -0.19882192 -0.06457762 -0.20504855
000190 d5 6d 34 3e 76 ee b5 3d 12 16 1f be 0e d1 bc 3c
       0.17620023 0.088833734 -0.15535763 0.023048904
0001a0 45 5d ec 3d 4e 82 fa bd 09 d5 db bd 33 02 16 bb
       0.11541227 -0.12231885 -0.107339926 -0.0022889494
0001b0 9f 9a bc 3d 53 d0 50 3d 9d 15 84 bd 27 fb 0f be
       0.09209179 0.050979923 -0.06449435 -0.14060651
0001c0 f1 e1 bd be c7 d7 5f 3e 44 9c 2d 3c fb 75 4e 3d
       -0.37086442 0.21859656 0.010596339 0.050405484
0001d0 03 cb 08 3e e4 94 67 3e 91 af 43 be 6c 53 17 be
       0.13358693 0.22615391 -0.19109942 -0.14777917
0001e0 1c 1d 58 3c 8d 7c 7d 3e 5e dd a3 bd 0f 85 18 be
       0.013190534 0.24754544 -0.08001207 -0.14894508
0001f0 15 2c 7f 3e 65 71 74 3c 77 39 e5 3d cc 0f ce 3d
       0.2491916 0.0149196135 0.11192601 0.10061607
000200 fb 00 00 3e db 64 8e bc fc 98 1f be 1d 29 cd 3d
       0.12500374 -0.017382076 -0.15585703 0.10017607
000210 f3 cb 7a bb 9d 7d 6c be 8e 47 75 bc 3e cf 3a 3d
       -0.0038268536 -0.23094793 -0.014970673 0.045607798
000220 62 79 80 3c 99 28 57 3e 7a 1d 11 be 1d 5c 71 3e
       0.01568288 0.2101158 -0.141714 0.23570295
000230 76 c0 e9 3d ef 8a 35 3d c4 89 9c 3d fd 6a 56 3d
       0.11413662 0.04432195 0.07643464 0.052348126
000240 90 79 2d 3b 82 25 ff 3d 6e 59 7a bd 4c fd a4 bd
       0.0026470162 0.12458326 -0.061120443 -0.08056125
000250 60 f2 d6 3d df d7 a0 3e 4f 04 24 3e c4 ed c1 3e
       0.10495448 0.31414697 0.16017269 0.37876713
000260 eb b2 9b be d0 d7 3a 3e c5 7e fa bd 77 ea 8d be
       -0.3040994 0.18246388 -0.122312106 -0.27717945
000270 33 2a 51 3d 73 9f 9d 3d c5 44 48 3e 5c 1e f5 bd
       0.051065635 0.07696428 0.19557483 -0.11968681
000280 8f 6f 5c be 06 a2 a4 bd 7e 3e de 3d fd 98 b1 3e
       -0.21526931 -0.08038716 0.10851763 0.34687033
000290 d0 d2 95 3d 6c d7 bc 3c 65 89 cf bd 6f a8 36 3e
       0.073156 0.02305194 -0.10133628 0.1783769
0002a0 1f a3 54 bd 23 2b 69 bd 7d 9c 40 3d 37 87 c6 3d
       -0.051913377 -0.056925904 0.04702424 0.09693759
0002b0 c5 a9 a8 be a3 8d 2e 3e 3e 00 c9 bd a3 2f ab be
       -0.32942024 0.17046218 -0.09814499 -0.3343478
0002c0 20 31 0d 3d 4c 67 23 3e f2 2d 2c be ad 6b 74 3c
       0.034470677 0.15957373 -0.16814402 0.01491825
0002d0 28 c8 5d 3e 7a df d2 3d 13 ce a6 3d 6c f2 66 be
       0.21658385 0.10296531 0.08144774 -0.22553414
0002e0 d0 82 bc bd 7a 61 13 be 52 6c 8c be a5 33 00 3e
       -0.09204638 -0.14392653 -0.27426392 0.12519701
0002f0 9a 04 cc bd e2 dd 5c 3e 97 b4 e7 3d 8e 7d 65 bc
       -0.09961815 0.21569017 0.11313742 -0.014006985
000300 df 73 2e 3d 6e 93 a7 bd 5a ac a6 bd a2 0f 06 be
       0.042590972 -0.08182417 -0.08138342 -0.13091901
000310 db 1c 4d 3e 5c 2a 1e bd fa c2 a5 bd c2 2a 21 be
       0.20030539 -0.038614616 -0.080938295 -0.15738967
000320 65 54 b1 3d 7a af b1 bd ff de 16 3c f5 c9 98 3e
       0.08658675 -0.086760476 0.00920844 0.2984158
000330 e2 eb d6 bd e5 14 93 be 13 a4 37 3e 75 37 58 be
       -0.1049421 -0.2872688 0.17933683 -0.21114905
000340 ef 1f d7 3d 83 d3 da bd cb 11 2b 3e c6 c1 8e 3c
       0.10504138 -0.10684874 0.16706006 0.017426383
000350 ae 2a 2b bd 08 8b 81 3c 27 3c 49 3e 33 50 26 be
       -0.04178875 0.015813366 0.19651853 -0.16241531
000360 84 75 e8 3d d0 6d 95 bc 37 43 0d be 2e 6e 27 bc
       0.11350539 -0.01824084 -0.13795172 -0.01021914
000370 11 7e 0d bd f0 99 31 3e 6f 37 00 be 83 2c 79 be
       -0.034544054 0.17343879 -0.12521146 -0.24333386
000380 b0 c6 54 3e 68 0c 21 3e 55 f1 2a be c9 58 8f 3e
       0.20778918 0.15727389 -0.16693623 0.27997425
000390 1a 8d ba be 0d ef 6d 3d d4 36 f0 3e 45 a3 25 be
       -0.36435777 0.058089305 0.4691683 -0.16175564
0003a0 30 40 cc 3b 06 25 c1 3c 1a b7 bd 3d 4b a6 c4 3b
       0.0062332377 0.023577224 0.092634395 0.006001269
0003b0 eb d3 f1 3d b7 94 99 3d 76 0a 0a 3e 96 32 d4 bd
       0.11807998 0.07499068 0.13480553 -0.10361211
0003c0 f2 3a 0c 3e af 90 9c be 72 19 b9 3b cc 67 21 be
       0.13694361 -0.30579135 0.0056487853 -0.15762252
0003d0 e0 e8 e4 3c 09 bd 5b 3e 5d fb 0f 3e 6c 44 a1 3d
       0.027943075 0.2145883 0.14060731 0.078743786
0003e0 10 b9 c7 3d 1a fc 50 be 10 d1 9f 3e d3 27 8a 3d
       0.09752095 -0.20408669 0.3121419 0.06745877
0003f0 f8 1c be 3d 80 96 60 be d4 cd 68 bd 61 a1 3b 3d
       0.09282869 -0.21932411 -0.056836918 0.0458082

attention_blocks.0.self_attn.in_proj_bias f4 [192]
000000 55 b8 b5 3d f7 a9 92 bc 7d 8e a5 bd 84 a2 a4 bd
       0.08873049 -0.017903311 -0.08083818 -0.0803881
000010 69 3f 85 3d 91 65 89 3d 4a 16 1d 3c 39 3a 28 3d
       0.06506235 0.067088254 0.009587834 0.04107115
000020 47 3b a0 bd 74 57 b1 bc 25 ae 8e bd f5 d1 94 bc
       -0.07823806 -0.021648146 -0.06966809 -0.018166522
000030 39 1e b6 bc a4 d3 fd 3d 86 c4 1d 3e bd 10 b0 3d
       -0.022231208 0.12393883 0.15406999 0.085969426
000040 ad 4a e3 3d 89 b8 15 bd 57 95 fd bd 0b 28 18 be
       0.11098228 -0.03655294 -0.12382 -0.14859025
000050 37 a7 34 bd de 8f ce 3d a8 ad 65 bd 9e 71 d4 bc
       -0.04410478 0.10086034 -0.056073815 -0.025933083
000060 4f 58 e3 3d 81 9a 93 3b 88 03 02 bd 77 ef e1 bd
       0.11100828 0.0045045023 -0.03174165 -0.110320024
000070 0e 24 99 3d 2c 7f 21 3e 43 40 e0 3d c8 1b 04 3a
       0.0747758 0.15771168 0.10949757 0.000503954
000080 42 16 29 3e 8e c4 37 3e 45 8b 00 be cf 7e e9 3d
       0.16512397 0.17946073 -0.12553127 0.1140114
000090 6e 38 0a 3e 76 0c 9b 3d 11 1a d8 3c 1d 4b b6 bd
       0.13498089 0.07570736 0.026379617 -0.089010455
0000a0 7e 5a 5e bb 75 b6 a2 3d d1 87 91 bd 02 c5 db 3c
       -0.003392845 0.07944957 -0.07105983 0.02682734
0000b0 37 3b 40 3d 1a dd 02 bd 5c 16 51 bd 77 d9 45 3e
       0.04693147 -0.03194914 -0.051046714 0.19321238
0000c0 03 5d f6 3c 9e f9 83 bd 6b 6a cf 3c 1e 04 4b 3d
       0.030073648 -0.06444095 0.025319299 0.049564473
0000d0 de af 9a 3d 9e d6 77 bc b2 32 4f bd 45 db f0 ba
       0.07553075 -0.015126852 -0.050585456 -0.0018375894
0000e0 04 23 fa 3c 92 a5 03 3e 6d 44 a1 3d 34 7e 69 3d
       0.030534275 0.12856129 0.07874379 0.057005122
0000f0 8d e7 9d bd 86 1e 01 bb 76 da f5 3d e5 59 8d bd
       -0.077101804 -0.0019702031 0.12004559 -0.06901912
000100 61 29 0f b9 92 08 ad b9 5b 57 f9 b9 f4 25 b0 b8
       -0.00013652958 -0.00033003517 -0.00047558066 -8.399403e-05
000110 85 3b ad b8 1f 25 84 ba 13 c5 87 39 9d 4d 00 ba
       -8.260369e-05 -0.0010081864 0.00025896038 -0.0004894378
000120 d9 fb d1 39 a9 b5 67 b9 a9 b8 bf 38 c1 e9 35 b9
       0.00040051228 -0.0002209755 9.141985e-05 -0.00017348585
000130 10 42 84 b9 04 c7 6c 3a 2d e6 c2 39 a5 dd 48 3a
       -0.00025226222 0.0009032341 0.00037174058 0.0007662422
000140 94 2f 0e ba 33 d4 8c b8 bd b1 3c ba 14 fb cd 37
       -0.000542396 -6.7152454e-05 -0.0007198116 2.4554822e-05
000150 d3 84 f5 b8 ac 48 4d b9 b2 63 ec b9 61 a7 20 3a
       -0.00011707251 -0.00019577396 -0.00045087707 0.0006128457
000160 cf 09 f8 b9 bb c6 48 b7 39 00 c1 39 db 6a 7f ba
       -0.00047309554 -1.19671995e-05 0.00036811995 -0.0009743401
000170 46 c7 83 b5 ef fc b3 b8 eb 8d 85 39 03 0a aa 38
       -9.818257e-07 -8.582498e-05 0.00025473474 8.1080965e-05
000180 aa 10 3c 3a 81 cd 17 39 c0 04 70 3a 71 7e 5d 3a
       0.0007174114 0.00014477038 0.0009155981 0.0008449322
000190 00 89 71 b9 10 84 88 3a 4d d9 d8 b9 fe 57 8a 39
       -0.00023034588 0.0010415334 -0.00041360632 0.0002638697
0001a0 34 30 36 ba 94 df 28 3a 4c cd 41 ba bb bc 22 37
       -0.0006949932 0.0006442007 -0.00073929573 9.699895e-06
0001b0 e5 84 b1 b7 30 19 f8 b8 b7 aa ee 38 30 36 dd 38
       -2.1161928e-05 -0.00011830253 0.000113805225 0.000105481944
0001c0 f7 64 0b ba 4a 1a 0a 39 f4 12 68 39 ca 56 44 3a
       -0.0005317474 0.00013170499 0.00022132305 0.0007489739
0001d0 50 f9 72 38 4a fb 10 39 99 b5 3a 3a 85 5c 84 39
       5.7929487e-05 0.00013826523 0.0007122397 0.00025245934
0001e0 30 53 c1 b8 d7 31 fb b8 82 0f f4 39 2e 7f 46 3a
       -9.218452e-05 -0.00011977896 0.0004655086 0.0007572052
0001f0 ce 6c 7a 36 21 d5 c5 39 25 31 e8 3a 52 8a 13 b9
       3.7316236e-06 0.00037733561 0.0017714842 -0.00014070541
000200 4c 00 47 39 7a 01 34 bc 9b ca 94 3c 83 7b 9f 3b
       0.0001897823 -0.01098668 0.018163016 0.0048670187
000210 a2 fb fd ba 0b 22 22 3c 42 e5 8e 3b 48 39 11 bc
       -0.0019377361 0.009895812 0.0043608258 -0.008863755
000220 e8 32 2a 3c 43 14 8a 3c 49 d3 7c 3c 62 e9 cb bc
       0.010388114 0.016855365 0.015431234 -0.024891559
000230 3b 7d e0 bb ba 90 7a 3c 88 be 3e 38 22 0d 82 bc
       -0.006850866 0.015293295 4.5476976e-05 -0.015875403
000240 13 81 ff bb d2 66 2b ba fb 97 1c bc 67 14 31 3d
       -0.0077973693 -0.0006538454 -0.009557719 0.043232348
000250 d6 34 e9 3b e2 3d eb 3a 59 4b c8 3b 97 7a b5 ba
       0.0071168942 0.001794752 0.0061124978 -0.0013845739
000260 5e 45 d0 3a 3c 05 50 3c a7 04 61 3c 51 74 ce bc
       0.0015889814 0.0126965605 0.013734019 -0.025201948
000270 f1 89 31 bc 09 80 50 ba 18 5a 97 ba 66 37 37 bc
       -0.01083611 -0.0007953649 -0.0011547236 -0.011182642
000280 da 56 95 ba 7f a1 4b b9 9c c7 7d bc 85 1c 5e bc
       -0.0011393682 -0.0001941975 -0.015489485 -0.013556604
000290 29 b2 4b 3c 5f e1 12 3c 72 25 8d bc d6 0e a0 3c
       0.012432613 0.0089648655 -0.01722977 0.019538324
0002a0 9a b9 83 bb 2e 2b aa bc 77 6f 12 3b d2 5f fd 3b
       -0.004019928 -0.020772543 0.002234427 0.00773237
0002b0 74 fe 4c bb 43 ae 09 bc 9c bc 5c bc c1 8d ab bc
       -0.0031279596 -0.008403364 -0.013472702 -0.020941617
0002c0 fc dc 4f bc 71 d4 b5 bc d9 64 34 bc 00 3c 98 bc
       -0.012686964 -0.022196027 -0.011010372 -0.018583298
0002d0 03 26 03 bc ee 8c 2a ba 62 1c 32 3c e9 e1 99 ba
       -0.008004668 -0.00065059855 0.010871025 -0.00117403
0002e0 0b 92 a0 3c eb ba 20 3c cc 40 1e bb 71 76 97 3b
       0.019600889 0.00981019 -0.0024147509 0.0046222736
0002f0 4d 14 6c 3c 38 b8 9a 3a 52 1a 6b 3b b8 0d 2d bc
       0.014409137 0.0011804169 0.0035873842 -0.010562353

attention_blocks.0.self_attn.out_proj.weight f4 [64, 64]
000000 e9 61 7f bd 25 cb 2f 3d 0f 48 7a 3c fc 98 95 bc
       -0.062349234 0.042918343 0.015275969 -0.018261425
000010 92 94 d4 bb 52 96 17 bc f6 c7 81 3d d6 63 be 3c
       -0.0064874375 -0.009252148 0.06336968 0.023240965
000020 e0 00 3d bb 9f 40 6b 3c e4 60 41 bd 18 ae ea 3d
       -0.0028839633 0.014358669 -0.047211543 0.11458987
000030 be a3 72 3d 86 d2 92 bd 3d 18 60 bc 69 0c db bd
       0.059238188 -0.071690604 -0.013677654 -0.106957264
000040 2f 5a 78 bc b7 1d 45 bc 96 a6 72 bd 19 7b b5 bb
       -0.01515822 -0.01203101 -0.0592409 -0.005538356
000050 49 c2 2d 3d 18 b6 e3 3d 55 c5 ec 3d ef 37 90 3c
       0.042421613 0.11118716 0.115610756 0.017604796
000060 c9 5f b3 3b 29 87 8b 3d 57 da 0e 3c 2a aa 19 3c
       0.005474065 0.06812889 0.008719048 0.009378949
000070 fd 10 1d 3d 72 85 18 3a 3f e2 25 3b d6 4f 29 bb
       0.03834628 0.0005818225 0.0025311855 -0.002583494
000080 05 bf 76 bd 31 99 b0 bd a8 ad aa bc fb 70 ad 3d
       -0.060240764 -0.08622969 -0.020834759 0.08468815
000090 39 31 a2 3d b2 d9 07 3c 33 07 e6 3d 01 2e 6f 3c
       0.07919545 0.008291649 0.11231842 0.0145983705
0000a0 f4 b3 b4 bd e1 6f fd bc 34 b5 bb 3c a6 ad b9 bc
       -0.08823386 -0.030937137 0.022913553 -0.02266581
0000b0 e5 b8 18 bc c8 9c a0 bc ae 6b 0b 3d a4 9a da bb
       -0.009321426 -0.01960601 0.03403824 -0.0066712666
0000c0 ed ae 16 3d a5 4a 9b bd dc c1 84 3c 9e 76 a1 3d
       0.036787916 -0.07582597 0.01620572 0.078839526
0000d0 65 3b c2 3b 3f 5e a3 3c 59 48 a3 3c cc 0a 2d 3d
       0.0059274905 0.019942401 0.019931959 0.042246625
0000e0 c9 b0 6c 3d a3 e0 95 3d 2e 4e 1b bd 47 64 9a bd
       0.057785783 0.07318237 -0.037916355 -0.07538658
0000f0 82 a5 7c bd ff 1b 83 3d 20 43 a2 3d a4 a5 e9 3d
       -0.061681278 0.06401824 0.07922959 0.114085466
000100 13 65 22 3d d2 57 98 bc c2 ae be bd 49 ce 81 bb
       0.039647173 -0.018596563 -0.09310676 -0.0039613587
000110 6a 2b d2 3c 9c 8f d6 bc 4c a7 a9 3c a2 c7 02 3d
       0.025655467 -0.026191525 0.020709656 0.031928666
000120 a9 94 da 3d 90 37 ad 3d bd 93 06 3d 17 79 7f 3d
       0.10672886 0.08457863 0.032855738 0.06237134
000130 d2 67 6a bb 5d 62 e5 3b 6a 46 49 ba d0 b8 8e bd
       -0.0035767448 0.007000251 -0.0007678034 -0.06968844
000140 37 1f a0 bc c3 82 83 3c 77 05 9a 3d 5c 02 9f 3c
       -0.019546134 0.016053563 0.075205736 0.019410305
000150 8c 70 64 3d 60 b2 9b bc e0 70 c3 3d c0 30 f4 3d
       0.055771396 -0.019005954 0.095430136 0.11923361
000160 ae ed b4 bd 10 d5 37 bc dd 19 e2 bd dc c1 91 bc
       -0.08834396 -0.011220232 -0.11040089 -0.017792635
000170 54 ac 0c 3a 5f e3 94 3d 6e 2a 80 bb a1 5b 1f bd
       0.0005366255 0.0726993 -0.003911308 -0.038905744
000180 02 1e bb bb 74 e4 77 3d fd f9 7b 3d 7c a8 86 bd
       -0.0057103643 0.060520604 0.061517704 -0.065751046
000190 fb c7 21 bd bb 97 c6 bc 89 29 ae bc 5b fe 4b 3c
       -0.039497357 -0.024242273 -0.02126004 0.01245078
0001a0 ba 23 33 bd e0 e6 91 bd 94 97 15 3d 81 88 41 3d
       -0.043735243 -0.07124114 0.03652151 0.04724932
0001b0 12 da 3e bd a0 76 28 bd a1 c9 06 bb fb 8e 5e bc
       -0.046594687 -0.041128755 -0.0020566958 -0.013583894
0001c0 b3 79 fe bc 6e 0d bf bd 57 7e ca bc 23 5e b0 3c
       -0.03106389 -0.093287334 -0.024718447 0.021529263
0001d0 ce 03 72 3c d8 cd eb 3b db 07 41 3d 77 e1 f0 3c
       0.014771415 0.0071961693 0.047126632 0.029404385
0001e0 1e 91 e2 3c df 3a c5 bd ee e5 43 3c cf 27 2a 3d
       0.027657088 -0.096303694 0.011956675 0.04154187
0001f0 3d 33 22 3d 62 43 66 3a be 59 27 bc f4 28 92 bb
       0.039599646 0.00087838445 -0.010214267 -0.0044604484
000200 3e 02 8e bd aa 88 c3 3d 8d 52 a8 3d 5d 3d a8 bc
       -0.069340214 0.09547551 0.0821887 -0.020537073
000210 41 80 a0 3d ca 47 a3 3d 2c 51 05 bd cd 8c e7 bc
       0.078369625 0.07972677 -0.032548115 -0.028265381
000220 91 61 a0 bd 6d bb 7b 3c 71 d9 32 bd 81 b5 2b bd
       -0.07831109 0.01536451 -0.0436644 -0.041921142
000230 47 a2 a6 bd 4b e9 cf bd a1 70 3a bd 24 76 84 3d
       -0.08136421 -0.10151919 -0.045517568 0.06467846
000240 80 35 85 bc f2 e9 13 3d 39 cb 34 bb 4a 18 56 3d
       -0.016260862 0.03611178 -0.002758695 0.052269258
000250 35 a3 d9 bc b4 b7 92 3b c0 0a 89 3b 33 ab f5 3c
       -0.026567081 0.0044774655 0.0041821897 0.02998886
000260 d8 ae 87 3d b7 b1 60 3d 1a 96 58 3d c6 ef 4f 3d
       0.06625146 0.054856982 0.052877523 0.050765775
000270 32 82 0f 3d a9 6f 37 be db 59 0a bd b4 d3 af 3d
       0.035036273 -0.17913689 -0.0337771 0.08585301
000280 2f 06 e5 3c 9d b7 05 3d a4 36 78 bb 70 87 ed bc
       0.02795705 0.03264581 -0.0037874365 -0.028995246
000290 b1 4b d6 bc bb de b6 bc 83 cf 06 3d 3f a8 d3 bd
       -0.02615914 -0.022323003 0.032912742 -0.10334825
0002a0 e6 8c aa bc 33 04 8d bd 2a 0c 37 3d 8d 71 f1 3d
       -0.020819139 -0.068855666 0.044689335 0.11789236
0002b0 36 f7 14 bd 61 36 e0 3a 30 0d d4 bc 32 76 c7 3d
       -0.03636857 0.001710605 -0.025885195 0.09739341
0002c0 89 82 33 be 6b 9e b5 3d 1b 03 25 3c 4f 2a 9f 3c
       -0.17530264 0.088681065 0.010071541 0.019429354
0002d0 7e 6a c4 3c 34 d2 77 bd aa 37 2f 3d e6 2b 0e 3d
       0.02397656 -0.0605032 0.042777695 0.034709834
0002e0 91 74 1e 3d 2f 8c 85 3d fe e9 dc 3d a6 0e b9 3d
       0.038685385 0.065208785 0.10786818 0.09035997
0002f0 51 bd bb bc f8 a9 b6 bc 4c 74 9f 3d 98 53 9a 3c
       -0.022917422 -0.022297844 0.07785854 0.018838689
000300 fb 85 de 3d 28 58 75 bd 2f a8 21 bd 94 0c 8e bc
       0.108653985 -0.059898525 -0.039467033 -0.017339982
000310 05 c1 33 be c9 5d 84 3d 19 ec f1 bd 8c a6 7b 3d
       -0.175541 0.064632006 -0.1181261 0.06143813
000320 31 18 8a bd fd 16 aa 3c c2 3d 0b 3d 6f dd 08 3e
       -0.067428954 0.020762915 0.033994444 0.1336572
000330 30 50 1b 3e fb 66 65 bd 71 f7 95 bd fd 81 e8 bd
       0.15167308 -0.056006413 -0.07322586 -0.11352918
000340 47 17 8e 3c a1 4b 07 3d 7c c0 96 3c 9f 2c 8c 3d
       0.017345084 0.03303111 0.01840233 0.06844448
000350 72 08 c0 ba 5a c8 c8 3b 90 e1 56 3d 25 29 13 3d
       -0.0014650954 0.0061273994 0.052461207 0.03592791
000360 cb cd 6e 3d 54 d1 c0 3c 6f b9 75 bd 99 19 1f be
       0.05830173 0.023537315 -0.059991296 -0.15537108
000370 a9 f3 18 bd e6 67 71 3d 7f 77 a9 bd 55 a0 30 bd
       -0.037341747 0.058936976 -0.08274745 -0.043121655
000380 92 17 c0 bd 9b 8c 7f 3d e6 e2 37 3d 9b 27 38 3c
       -0.09379496 0.06238995 0.04489412 0.011239911
000390 e3 3e 39 bd 69 cc 78 bc 9a c5 01 bc d9 8c 8e 3d
       -0.04522599 -0.015185454 -0.007920647 0.06960458
0003a0 c1 71 6d bd 06 d6 09 bd 97 17 f2 3c 8a 5b 9f bc
       -0.057969812 -0.033651374 0.029552264 -0.019452829
0003b0 01 aa 4a bd 66 ad 9a 3c 61 56 93 bd 38 90 03 3d
       -0.049478535 0.018881511 -0.0719421 0.03211996
0003c0 d4 58 0e 3d a0 b9 24 be 75 7f 91 bd 78 47 b8 3c
       0.03475268 -0.16086435 -0.071043886 0.022495016
0003d0 1c 6f 08 3d f4 9e 01 3c d4 06 03 bb 1e 4c 5e bd
       0.033309087 0.007911433 -0.0019993084 -0.05427181
0003e0 bd f9 f6 bc 7c b6 83 3d af f8 53 bd c5 ad c8 3d
       -0.030148381 0.064312905 -0.051750835 0.09798769
0003f0 9e fc bf 39 c9 a8 be 3d e3 71 35 bd c8 80 2e bd
       0.00036618573 0.09309537 -0.044298064 -0.042603284

attention_blocks.0.self_attn.out_proj.bias f4 [64]
000000 7d 87 1c bc 7c 26 db b8 d8 47 05 bd ff cc 78 bd
       -0.009553787 -0.00010449902 -0.03253922 -0.060742375
000010 8a eb 6a 3c 3d 8b 21 bd 94 30 67 3c 9f 76 64 bc
       0.014338383 -0.03943943 0.014110703 -0.013944297
000020 bd d2 13 3d 2b 35 94 bc e2 e5 0b 3d 2a 7f d5 3c
       0.036089648 -0.018091759 0.03415478 0.026061613
000030 9c ee c8 3c 5d 39 80 bb dc 87 18 bd 33 01 0e 3c
       0.02452784 -0.0039130882 -0.03723894 0.008667278
000040 55 d9 e3 3c 4b fa fa bc 26 e7 ff 3c 1f ae 6d 3d
       0.027813593 -0.030636927 0.03123815 0.058027383
000050 97 6e 35 bc 5b 0d 98 3c c8 d3 24 3c 91 60 1b 3c
       -0.01107373 0.018561056 0.010060258 0.009483472
000060 9d 4a 1a 3d 16 f2 f2 b9 be 1e a6 3d 66 ca 3e 3d
       0.037668813 -0.00046338205 0.08111332 0.04657974
000070 7c 74 40 bb 47 4c ab 3b c4 c1 5f bb e7 06 0b 3d
       -0.0029366305 0.005227599 -0.0034142593 0.03394213
000080 29 36 1b bd 7d c5 13 3c 98 16 dc 3c 6a eb 86 bc
       -0.037893448 0.009019253 0.026866242 -0.016469676
000090 d8 29 19 bd 33 b3 46 3d 36 db 48 bd 5a af 2e 3d
       -0.03739342 0.04851074 -0.04903718 0.042647697
0000a0 8e 14 ad 3c 16 39 2c bc 3c 2e 65 3b c8 7e f2 3c
       0.021127965 -0.010511657 0.0034970185 0.02960147
0000b0 30 89 9e bd a8 64 bd bb 0a ba ec bb 40 82 9a 3b
       -0.0774101 -0.0057798214 -0.007224326 0.004715234
0000c0 78 30 bc b9 95 9c 6a 3c 9a b2 80 bb a4 54 32 3c
       -0.00035894266 0.014319559 -0.003927541 0.010884438
0000d0 8f 13 b9 3c e1 51 83 bc a1 b6 f5 3c 02 6d 45 bb
       0.022592334 -0.016030254 0.02999431 -0.0030124788
0000e0 6f 8d df 3d c8 7d 9c 3a 23 bc 88 bc 96 fb 04 bd
       0.10915648 0.0011939341 -0.016691273 -0.032466494
0000f0 3c 20 6e bd ad d9 ea bc 5e 54 ec 3c 78 62 32 bc
       -0.05813621 -0.028668249 0.028848823 -0.010887735

attention_blocks.0.linear1.weight f4 [256, 64]
000000 6b aa 51 bc 0a a6 51 be 7b dd d2 3c 4b 50 4a 3b
       -0.0127969785 -0.20473495 0.025740376 0.0030870612
000010 df b8 1e bd 0c 44 95 bd 41 c1 3d bc ce 93 3a 3d
       -0.038750526 -0.072883695 -0.01158172 0.045551114
000020 f9 c9 1a 3e 4b 51 7f 3d 5f 23 8c bb 12 96 b9 3d
       0.15116109 0.062333386 -0.0042766775 0.09061827
000030 c3 c3 c1 bc b9 9a b8 3c cb a8 4f 3e a6 9f 1f be
       -0.023652917 0.022534715 0.20279233 -0.15588245
000040 15 18 ac be 42 81 bf 3c a0 56 a6 3d 94 e6 60 be
       -0.33612123 0.023377065 0.08121991 -0.21962959
000050 f9 20 a7 3d f2 26 ac bd fa 08 d0 bd 79 65 d1 bd
       0.08160586 -0.08405866 -0.10157962 -0.102244325
000060 eb 52 22 bd 6e 1b da bd 0f eb d9 3c 6d 57 a1 3d
       -0.039629858 -0.10649763 0.026601342 0.07878003
000070 a1 8b 84 ba 42 fe 44 3d ad 13 7e 3d 32 b5 36 be
       -0.0010112413 0.04809404 0.062030483 -0.17842558
000080 1b 2b f5 3d 5d 7e 26 3d 29 83 d0 bd e4 b9 b1 3d
       0.11971112 0.040647853 -0.10181267 0.08678034
000090 01 30 1a 3e 1b 18 a3 bd fa 33 1b 3e 14 fb 6b 3c
       0.15057375 -0.07963582 0.15156546 0.014403123
0000a0 e6 31 c5 3d 36 32 d3 3d c2 49 a1 3d fb 4d 1e bd
       0.09628658 0.10312311 0.07875396 -0.038648587
0000b0 8d 60 05 3e 88 e2 9b 3c 5f b3 65 bc 28 f7 95 3d
       0.13025112 0.019028917 -0.014019816 0.07322532
0000c0 90 38 6b 3d 7a 1a b4 bd 4d 59 9e bc 28 c4 5e bd
       0.05742699 -0.087941125 -0.019329691 -0.054386288
0000d0 59 81 84 bc bf ba 75 3c 03 7f 68 3e 20 3a 21 3b
       -0.016174959 0.014998137 0.22704701 0.0024601296
0000e0 e0 45 28 be 70 51 ce 3d ba 55 27 3a 78 55 21 3e
       -0.16432905 0.10074127 0.00063833187 0.1575526
0000f0 15 4b af 3d ca 65 3d 3c 3c 4f 21 bd be 23 b6 bb
       0.08559243 0.011559913 -0.039382204 -0.00555846
000100 27 ad df 3c 76 32 37 3d d1 10 f7 3d 05 3d 31 bd
       0.027304245 0.044725858 0.12063754 -0.043271083
000110 6d 02 52 bd 5a 16 a4 3d 56 62 d1 3c e9 b8 7f 3e
       -0.051271845 0.08012076 0.025559586 0.24972881
000120 47 15 08 be 0c 8a 70 3c e8 e4 c3 bd 76 ae 91 3d
       -0.13289367 0.01468135 -0.09565145 0.07113354
000130 36 ca b8 3d c2 63 85 3c 66 18 56 3d 6c 4a 27 bd
       0.09022944 0.01628292 0.052269362 -0.04084246
000140 dd 5b 63 be 2d 23 80 3e 94 61 bc bd ce fb 0c be
       -0.22203012 0.25026837 -0.09198299 -0.13767931
000150 c6 59 c6 3d 6a 38 0a be 96 40 15 bd 58 68 d8 bd
       0.09685092 -0.13498083 -0.036438547 -0.10566777
000160 b4 d9 99 bb 13 cb 57 3e cf f7 2f be 1b ee 39 3d
       -0.0046951417 0.2107356 -0.17184375 0.04539309
000170 79 61 97 3c 54 0f d8 bd 42 4a 10 3e 57 85 6c be
       0.018479096 -0.105497986 0.14090827 -0.2309774
000180 8e 10 44 3b c2 95 18 be d8 5c 51 3d 81 d8 b4 3d
       0.0029917094 -0.14900878 0.051113933 0.08830357
000190 e0 9d 0e 3d 96 07 b3 38 bf 49 65 3d e3 b9 df bd
       0.03481853 8.536798e-05 0.055978533 -0.10924127
0001a0 29 1f b5 3d 2a a8 9e bd bc 97 4f 3e 1e ce 8e 3d
       0.08843834 -0.077469185 0.20272726 0.069729075
0001b0 43 a6 5a bd ca 2a bc bc 50 57 0b 3c c6 71 81 3c
       -0.053381216 -0.022969622 0.008504704 0.015801322
0001c0 3a 16 ac 3c 74 9f f8 3c 30 eb 6f bd c7 e1 90 bd
       0.021006692 0.03034947 -0.0585739 -0.070743136
0001d0 40 2f 3b 3c ac 4b ba 3d 4a 36 98 3d 46 fb bd 3d
       0.0114248395 0.090964645 0.0743223 0.09276442
0001e0 e8 73 0b bd ae 37 ae 3c ac a7 f0 3d 75 11 05 be
       -0.034046084 0.021266785 0.11750731 -0.1299494
0001f0 43 40 9b bd 66 7b c6 3d b9 c3 11 3d 1b c4 77 bd
       -0.07580616 0.09691505 0.035587046 -0.060489755
000200 e4 34 99 bc 0e e8 18 be 94 8d 02 3e a1 be 23 3e
       -0.018701978 -0.14932272 0.1274932 0.15990688
000210 62 8a 0e b8 b6 97 68 bc 10 2b 3f be b0 25 47 3e
       -3.3984317e-05 -0.014196327 -0.18668771 0.1944797
000220 7e 9c cc bd 80 aa 28 bd 32 98 d0 bd 5c 4b ca 3d
       -0.09990786 -0.041178226 -0.10185279 0.09877655
000230 81 ec de bd 58 a7 89 3d 8a c6 01 3e dc c1 03 3d
       -0.10884953 0.067213714 0.12673393 0.0321673
000240 64 52 0e bd 9f 0f 89 3e e3 65 55 3d 8d e0 e4 bd
       -0.034746543 0.2676973 0.05209912 -0.11175642
000250 2c 2b 99 3d 8f d8 f2 b9 5d 1e c3 3a 59 43 60 bd
       0.074789375 -0.00046319186 0.0014886368 -0.054751728
000260 30 dd be bd 2b ea b7 bd c1 98 81 bd ce 45 23 bb
       -0.09319532 -0.08980211 -0.063279636 -0.0024913433
000270 8e e7 01 3c b6 dd 0b be 2a 36 8a 3d fb 5e d1 bd
       0.007928742 -0.13658795 0.06748612 -0.10223194
000280 51 67 d9 3d 55 10 b8 bc 47 95 b1 bd 4d 26 ba 3d
       0.10615409 -0.022468725 -0.086710505 0.090893365
000290 95 6b 10 3e 92 ab 09 bd 7f 3f b4 ba 8b c0 86 bd
       0.1410354 -0.033610888 -0.0013751833 -0.065796934
0002a0 95 b5 a9 3d c2 17 54 bd 9b 14 8f 3d 88 41 e2 3d
       0.08286587 -0.05178047 0.06986352 0.11047655
0002b0 57 99 86 3d da a4 3b 3c 98 99 fb bb 09 b0 a8 3d
       0.06572216 0.011452878 -0.007678222 0.08236701
0002c0 9b 98 53 bc 2b 27 2a 3e e6 cb 8a be e9 17 8d bc
       -0.012914802 0.16616504 -0.27108687 -0.017223315
0002d0 24 01 1a 3d e1 56 8f 3d 86 57 a8 bd e9 19 0f bd
       0.037598744 0.06998993 -0.08219819 -0.03493682
0002e0 2a 08 75 bd 49 6e 8f 3b be 1f 16 3e cb f1 09 be
       -0.05982224 0.0043771607 0.14660546 -0.13471143
0002f0 4f e8 3b bd de 9f 01 3d ad 63 a3 3d fe 66 08 3e
       -0.045875844 0.0316466 0.07977996 0.13320538
000300 3d dd cd bc 6c 8e 2d bd a0 28 8c bb 5a 7f c8 bc
       -0.025129909 -0.042372152 -0.004277304 -0.024474788
000310 9f 61 84 3d a6 48 b3 bd e1 e4 8c bd 6c e4 a5 3d
       0.06463932 -0.08754091 -0.06879593 0.08100209
000320 bc 6c fb bd 6b 82 d2 3d 76 c4 56 3c 3f 41 4c 3d
       -0.12276599 0.102787815 0.013108363 0.04986691
000330 d7 1c cf 3d 5a 38 c9 3d b7 a6 b5 3c 5e f5 1d bb
       0.10112923 0.09825201 0.022174222 -0.002410255
000340 b9 af 57 be a0 4d 4a bd cc 9c a4 3d 3d 86 37 3d
       -0.21063127 -0.049390435 0.08037719 0.044805754
000350 c4 ea 42 3d 06 fa a5 3d 7c 62 71 ba c7 ce 95 3c
       0.04758717 0.08104329 -0.0009208096 0.018287076
000360 b7 ba 13 be f6 6d b6 3d 45 df 44 3d 3c 98 9d bd
       -0.14426695 0.08907692 0.04806449 -0.07695052
000370 24 42 8b bd a3 e7 6a bc 66 1b d2 bd 28 c5 36 be
       -0.06799725 -0.014337453 -0.10259132 -0.17848647
000380 09 3b 5b 3d 5c 5b 00 3d 84 19 91 3d 45 a9 ff 3b
       0.053523097 0.031337127 0.07084945 0.007802161
000390 9c 75 02 3b 4c 26 1c bc ce 8d 10 3d 60 10 e9 3d
       0.0019906526 -0.009530615 0.035291485 0.113800764
0003a0 e3 bd 03 be 87 3e ad 3d 7c 2c 21 3d 33 98 0e be
       -0.12865405 0.08459192 0.039349064 -0.13925247
0003b0 93 d7 55 3e 89 2b a4 bd 33 9e f5 bd 87 f7 e8 bd
       0.20883016 -0.08016116 -0.11993065 -0.11375337
0003c0 ae 28 8b bd d1 59 e3 bd da 62 42 be 30 f4 1c bd
       -0.067948684 -0.111011155 -0.18983021 -0.038318813
0003d0 02 ca 1f 3d 06 59 be bd 37 a3 5b bd 50 69 6e 3d
       0.03901101 -0.092943236 -0.05362245 0.058205903
0003e0 be 3f ab 3d 9f 57 6b bd 3d 04 2d 3e 69 89 eb bb
       0.08361767 -0.05745661 0.16896148 -0.0071880114
0003f0 74 e0 4b 3d 5e c6 5f 3d 0c 53 97 bb 31 15 b6 3d
       0.049774602 0.054632537 -0.0046180543 0.08890761

attention_blocks.0.linear1.bias f4 [256]
000000 16 85 e6 bd 83 52 0f be 9d 35 06 be cd 2b e3 bd
       -0.11255853 -0.1399632 -0.1310639 -0.11092339
000010 1f 10 41 be 25 99 74 bd c8 76 04 be ca 50 2e be
       -0.18853806 -0.059716363 -0.12935936 -0.17023006
000020 bc 42 1a be f0 d5 c8 bd ae 38 36 be d0 fe de bd
       -0.1506452 -0.0980643 -0.17795059 -0.108884454
000030 62 c3 06 be 97 0d 3a be 85 b2 61 be de 62 35 be
       -0.1316047 -0.18169247 -0.22040756 -0.17713496
000040 a1 1c 00 be 8c bc 6a be 96 dd 40 be 31 79 56 be
       -0.12510921 -0.22923487 -0.18834528 -0.20944668
000050 50 ab 5c be d6 86 c5 bd ab 75 53 be 7c bd 0d be
       -0.21549726 -0.096448585 -0.20650356 -0.13841814
000060 c0 83 0d be 73 a7 04 be bd 74 28 bd de 78 89 be
       -0.1381979 -0.12954502 -0.041126955 -0.26850027
000070 88 72 37 be 4f 0f 71 be ca 78 42 be 33 5e db bd
       -0.17914784 -0.23540996 -0.1899139 -0.107113265
000080 61 1a 2b be 96 1f 33 be ff 36 08 be 45 a0 8f bd
       -0.16709282 -0.17492518 -0.1330223 -0.07012991
000090 76 b5 3d be e2 dd 00 be cb 61 3b be 31 89 66 be
       -0.18526253 -0.12584642 -0.18299024 -0.22513272
0000a0 94 d2 1d be 26 8d 42 be bf 2e 16 be 52 90 62 be
       -0.1541236 -0.18999156 -0.1466627 -0.22125366
0000b0 9a c7 e6 bd f8 80 39 be 57 ea 84 be 39 e9 5c be
       -0.1126854 -0.18115604 -0.25960037 -0.21573342
0000c0 a6 87 5e be e9 6a c3 bd f1 a4 7b be 69 0d 30 be
       -0.21731433 -0.09541876 -0.24574639 -0.17192616
0000d0 8f 80 6e be 32 65 63 be a9 3a 4a be 0d 60 be bd
       -0.23291229 -0.22206572 -0.1974894 -0.09295664
0000e0 7d f2 0c bd 04 ae 69 be c4 f6 63 be 04 e5 34 be
       -0.034410942 -0.22820288 -0.22262102 -0.17665488
0000f0 76 90 f0 bd 54 a0 31 be b9 03 e8 bd 0d 6f 16 be
       -0.11746304 -0.17346317 -0.11328835 -0.146908
000100 f7 34 41 be 50 44 10 be fe cc 31 be fd 33 55 be
       -0.1886786 -0.14088559 -0.17363355 -0.20820613
000110 90 58 23 be 8f 23 1d be ab 5b 31 be ad 18 61 be
       -0.15951753 -0.15345596 -0.17320125 -0.2198207
000120 d8 d5 52 be 21 e6 53 be 63 1a 35 be c5 70 62 be
       -0.20589387 -0.20693256 -0.17685847 -0.2211333
000130 41 bf 33 be 1d db 5f be e6 38 70 be 25 8f 4a be
       -0.17553426 -0.21860929 -0.23459205 -0.19781168
000140 9f 8d e0 bd 26 16 4b be 6a 3b 0d be 2f 92 58 be
       -0.10964512 -0.19832668 -0.13792196 -0.21149515
000150 f8 ac 14 be 3d c5 4d be 4b b0 21 be 7e 21 1b be
       -0.14519107 -0.20094772 -0.15789907 -0.15149495
000160 9b 78 2d be 60 b2 97 be 2a dc 7e be 1b f6 3f be
       -0.16940539 -0.29628277 -0.24888673 -0.18746226
000170 48 5d f2 bd 09 13 51 bd c2 3d fe bd 85 60 1c be
       -0.11834198 -0.051043544 -0.12414123 -0.15271194
000180 98 8f 6a be 5d d6 23 be 72 e3 5e be 9a b6 74 be
       -0.22906339 -0.15999742 -0.21766451 -0.23897782
000190 b2 01 3d be 59 49 25 be e9 31 05 be a8 89 7a be
       -0.18457678 -0.16141261 -0.1300732 -0.24466574
0001a0 d3 5e da bd ff 59 14 be 86 67 60 be bc 33 5a be
       -0.106626175 -0.14487456 -0.21914491 -0.21308798
0001b0 bb 7f 73 be b5 06 67 be ba 9c 39 be b2 63 37 be
       -0.23779194 -0.22561152 -0.18126193 -0.17909124
0001c0 4a c6 2c be ac 25 ef bd a6 87 86 bd fe 44 6c be
       -0.16872516 -0.11677107 -0.06568842 -0.23073193
0001d0 d8 86 8f be 76 1d 28 be 94 1c 19 be ee 4c 06 be
       -0.28032565 -0.16417488 -0.14952308 -0.13115284
0001e0 1a c3 e0 bd e5 0d 47 be 04 a3 3c be b5 7c 6f be
       -0.10974713 -0.19438894 -0.1842156 -0.23387416
0001f0 84 28 2d be 77 28 49 be 2d 8f 25 be 44 a9 0c be
       -0.16909987 -0.19644342 -0.16167898 -0.13736445
000200 99 eb 40 be f1 bc 70 bd f8 65 22 be 29 b8 b7 bd
       -0.18839873 -0.05877394 -0.1585921 -0.08970673
000210 76 33 15 be 29 ac 5f be fd 57 67 be 03 dd 0c be
       -0.14570412 -0.21843018 -0.22592159 -0.13756184
000220 dc 8e 28 be 8e 62 44 be d6 f3 06 be d7 50 68 be
       -0.16460747 -0.1917822 -0.13178954 -0.22687088
000230 4b 88 dd bc ac 26 7c bd e8 35 03 be 3c 1b 2d be
       -0.027042529 -0.061560318 -0.12813532 -0.1690492
000240 65 41 13 be 97 1c 2a be a3 70 20 be 94 4e b2 bd
       -0.14380415 -0.16612469 -0.15667967 -0.08706394
000250 1e 9c 40 be a6 8a 7b be 7b 87 35 be 77 c3 52 be
       -0.18809554 -0.24564609 -0.17727463 -0.20582376
000260 19 a8 5f be 86 45 fd bd ad 6d 41 be a8 22 11 be
       -0.21841468 -0.12366776 -0.18889494 -0.14173377
000270 95 55 4e be 57 35 e9 bd 8f 32 b4 bd ef a5 22 be
       -0.20149834 -0.11387127 -0.08798706 -0.15883611
000280 11 b4 14 be d5 4e 84 be 5d 90 6d be 80 79 9f bd
       -0.14521815 -0.25841394 -0.23199601 -0.07786846
000290 a9 aa 2d be 7c 39 0e be fd 20 54 be 01 96 02 be
       -0.16959633 -0.13889116 -0.20715709 -0.12752534
0002a0 33 2a 22 be a8 1a 22 be 54 e0 c2 bd b1 9f 6e be
       -0.1583641 -0.15830481 -0.095154434 -0.23303105
0002b0 fd 31 3e be 9a a8 87 be 67 e7 46 be ff a8 43 be
       -0.18573757 -0.2649582 -0.1942421 -0.19107436
0002c0 1e d2 35 be 9f 1a 0e be c7 d3 06 be cc 6a 60 be
       -0.17755935 -0.13877343 -0.13166724 -0.2191574
0002d0 35 2a 0a be 75 dc 01 be 29 24 1a be 16 e2 8c be
       -0.13492663 -0.12681754 -0.15052857 -0.2751624
0002e0 8a ea 18 be ee 1d 09 be 21 1a 44 be ac d2 44 be
       -0.1493322 -0.13390324 -0.19150592 -0.1922099
0002f0 0c 97 22 be 20 ec b0 bd b2 78 36 be 95 e5 20 be
       -0.15877932 -0.08638787 -0.17819479 -0.15712579
000300 32 d9 45 be c8 41 3b be 31 91 c7 bd b3 ac 0f be
       -0.19321135 -0.18286812 -0.0974449 -0.14030723
000310 24 bd e8 bd 35 36 d4 bd c9 b8 1e be dd fc 41 be
       -0.11364201 -0.10361902 -0.15500177 -0.18944116
000320 d5 88 13 be 56 b9 15 be a8 1b 19 be 9a 7e d0 bd
       -0.14407666 -0.14621481 -0.14951956 -0.10180397
000330 65 17 36 be 38 c0 90 bd e4 eb 05 be c5 83 08 be
       -0.17782362 -0.07067913 -0.13078266 -0.13331516
000340 d4 3f 48 be 82 bf 3c be 95 b7 e2 bd f4 54 f4 bd
       -0.19555598 -0.1843243 -0.11070172 -0.11930266
000350 45 61 1f be f8 b8 ac bd 0b a8 f1 bd c0 8f 22 be
       -0.15564449 -0.084337175 -0.1179963 -0.15875149
000360 60 37 57 be 44 f0 0a be ee 7e 14 be 37 fc 2b be
       -0.21017218 -0.13568217 -0.14501545 -0.16795431
000370 b9 f9 f3 bd 62 a5 6a be 85 f3 e6 bd ea e7 48 be
       -0.11912865 -0.22914651 -0.112769164 -0.19619718
000380 79 4d 2c be 84 f6 19 be a9 46 07 be ec 81 f1 bd
       -0.16826428 -0.15035444 -0.13210548 -0.11792359
000390 09 36 3d be 5c cb d1 bd ab 9e 41 be 0c fd 3d be
       -0.18477644 -0.10243866 -0.18908183 -0.18553561
0003a0 5a 81 80 be cd c6 a0 bd 93 95 53 be 3d 69 f8 bd
       -0.25098687 -0.07850418 -0.20662527 -0.121294476
0003b0 e1 05 ed bd 77 5c 21 be b3 1f 17 be 3c 6d 73 be
       -0.11573387 -0.15757929 -0.14758186 -0.23772138
0003c0 53 70 25 be 50 cc 55 be 5e 7d a6 bd 4c ca 6e be
       -0.1615613 -0.2087872 -0.08129381 -0.23319358
0003d0 5c a7 4d be fa 75 03 be f9 49 62 be 52 77 b5 bd
       -0.20083374 -0.12837973 -0.22098531 -0.08860649
0003e0 05 20 f5 bd f2 52 5f be eb 69 52 be cf 90 58 be
       -0.11968998 -0.21808985 -0.20548217 -0.2114899
0003f0 09 bd 6c be 81 ef 55 be 6c 73 3b be ef e1 14 be
       -0.23118986 -0.20892145 -0.18305749 -0.14539312
